model_fullytrained.pt (torch, 47239 bytes, 5 tensors)

0.weight f4 [89, 36]
000000 60 12 d0 bb 02 58 15 be 46 6d 9f 3d db 31 b1 bd
       -0.0063498467 -0.14584354 0.07784514 -0.08652087
000010 bb 35 2a 3e 2a 85 ec 3d 0b 48 db bd b8 87 fa 3c
       0.16622059 0.115488365 -0.107071005 0.030582294
000020 3a 0e ab 3d 63 88 cd bd f0 1f 6b bd 30 4e 3d 3d
       0.08352323 -0.10035779 -0.057403505 0.046217144
000030 41 f8 29 3e 10 d4 07 bd 2c 84 62 bd f9 17 1a 3e
       0.16598608 -0.033161223 -0.05530183 0.15048207
000040 d0 b6 fd bd d2 c5 01 be 60 1b 09 3d b8 0d a0 3d
       -0.12388384 -0.12673119 0.033473372 0.07815117
000050 b0 de 01 3c 68 cb df 3c 67 39 1b be d0 29 68 3d
       0.007926628 0.027318671 -0.15158616 0.0566805
000060 ab b0 84 bd a0 3a e9 bc 4c 7f 79 bd c6 cd 81 3d
       -0.06479009 -0.028470337 -0.060912415 0.06338076
000070 28 c6 90 3c da 41 81 3d 38 d1 e3 3c 60 d8 fc 3b
       0.017672613 0.06311388 0.027809724 0.0077162236
000080 dc 1a 3e bd 40 a6 ca 3c 58 20 e2 bd 80 f6 8a 3a
       -0.046412334 0.024737477 -0.11041325 0.0010602027
000090 df 7a 4e 3e e1 ba 1f 3e 94 66 24 3e 07 9a 32 bd
       0.20164059 0.15598632 0.16054755 -0.043603923
0000a0 15 9b 47 3d 2c 49 6f bd ab 00 95 bd 40 5f 91 bd
       0.048731882 -0.05841939 -0.07275518 -0.070982456
0000b0 86 66 26 3c 92 17 18 3c f1 c7 45 be f3 9b 64 be
       0.010156279 0.009282963 -0.19314553 -0.22325115
0000c0 cc a8 e7 bd a0 b7 dc 3d cc 40 93 3d 7a 5c e8 3d
       -0.11311492 0.10777211 0.071900934 0.113457635
0000d0 75 fb 9d bd 7f 8c 8b 3d c7 57 fd bc 54 34 5a bd
       -0.07713977 0.06813907 -0.030925645 -0.05327256
0000e0 48 06 0f 3e ec 6d 60 bc 7c b8 55 bc a1 47 73 bd
       0.1396724 -0.013698082 -0.013044473 -0.059394483
0000f0 76 5c 86 bc 3d 7e 44 3e 10 57 88 be 14 6f 6b bd
       -0.01640151 0.19188781 -0.26628923 -0.05747898
000100 d6 f8 c3 3b d4 58 86 3e 0b 99 bc 3c 99 ec 5f 3d
       0.0059805913 0.26239645 0.023022195 0.054668996
000110 d2 25 3e 3e 06 52 11 3e fc e8 17 be 27 b1 96 3b
       0.18569115 0.14191446 -0.1483497 0.004598755
000120 1c cf 7b bd c3 e7 bd bd f7 49 1e 3e 79 29 69 bc
       -0.06147681 -0.09272721 0.15457903 -0.014231079
000130 b3 50 32 3c 00 4d 62 be a5 4f a2 3d ef 8c fa 3d
       0.010883498 -0.22099686 0.07925347 0.12233912
000140 29 b5 ad bd 57 04 3c be 3b ef 1e 3e c8 ad 27 be
       -0.08481819 -0.1836103 0.15520947 -0.16374886
000150 73 ef 2a 3d d2 2b 5f be 99 75 33 bd 32 5f 04 3e
       0.041732263 -0.2179406 -0.04381332 0.12926939
000160 3a dd 81 bd 43 95 ed bc 54 41 2d 3e ec 7c 4f 3c
       -0.06341024 -0.029001838 0.16919452 0.012664061
000170 5d 59 3a be 5a 75 f5 bd 57 22 dd bd 02 40 b2 3d
       -0.18198152 -0.11985274 -0.107975654 0.08703615
000180 5d 84 64 be aa da 9e bd ab 31 ad 3d 11 66 62 3e
       -0.22316118 -0.077565506 0.08456739 0.22109248
000190 58 c1 1e be ef 2c 53 be 8a f2 0d be 1d 14 80 bd
       -0.15503442 -0.2062261 -0.13862053 -0.06253836
0001a0 3f 5a 7c 3d 09 80 37 bd f1 71 2b 3e f2 0a ea 3d
       0.061609503 -0.04479984 0.16742684 0.11427869
0001b0 38 de a9 3e 03 75 86 3e 5a 37 5e 3d df 9d 40 3e
       0.33177352 0.26261148 0.054252006 0.18810223
0001c0 2f 01 21 3e d0 6e 11 bc 18 64 00 be 17 d3 0a be
       0.15723108 -0.008876517 -0.12538183 -0.13557087
0001d0 36 c7 b4 bd 29 13 0c bd d9 ab b4 bd 49 db af be
       -0.08827059 -0.03419796 -0.0882184 -0.3434699
0001e0 8d d3 c3 3d b2 5f a9 3d 68 38 b0 3d 80 3f 9c bd
       0.095618345 0.082702056 0.08604509 -0.07629299
0001f0 b9 9d c2 3c 9a 5c 06 be 63 ea 13 3e 1a 67 34 3d
       0.023756849 -0.13121262 0.1444488 0.044043638
000200 a7 4b 32 3e 59 2a 8f 3d 72 61 31 be ae c0 18 be
       0.17411672 0.06990499 -0.17322329 -0.14917251
000210 f1 26 8a be f8 3a be bd e7 dc 98 bc 61 0a a4 3d
       -0.26982835 -0.09288591 -0.018660022 0.08009792
000220 01 89 4f bc 0f 10 c5 3d 4c d1 7f bd 0f d2 52 3e
       -0.012666942 0.096222036 -0.06245546 0.20587943
000230 fc 5e 67 3d 78 d4 d7 3d 08 4e 6d 3d a9 a3 96 bd
       0.05648707 0.10538572 0.057935745 -0.073554344
000240 b5 da 64 bd c3 db 1c 3d dd e8 5d 3d 56 55 34 bd
       -0.055872638 0.03829552 0.054177154 -0.044026695
000250 4b d0 e7 bd 86 d1 42 3e 42 57 b1 3d 96 76 b1 bd
       -0.113190256 0.1902524 0.08659221 -0.086651966
000260 75 5f c0 bb 66 cf 45 3d eb 35 5b bd 82 e9 34 be
       -0.0058707544 0.048293494 -0.053518217 -0.17667201
000270 ff 92 4c 3e c6 31 4e 3e 9b f5 bc 3c 34 6a 88 3d
       0.1997795 0.20136175 0.023066333 0.06660882
000280 e1 6e f3 bd 48 52 8f bd 2a 62 84 be c6 74 a8 bc
       -0.11886383 -0.06998116 -0.25856143 -0.020563494
000290 5f 5d 57 3e d5 76 82 3e 74 bc 17 be 52 db 49 bd
       0.21031712 0.25481287 -0.14817983 -0.049281426
0002a0 31 45 92 3d 86 d2 fe 3d ab 20 aa bc 3c 32 e3 3c
       0.071421035 0.12442498 -0.02076753 0.027733915
0002b0 c5 92 b1 bc c9 e1 8f 3d a0 33 22 be 72 34 45 bd
       -0.02167643 0.07025487 -0.15840006 -0.04814572
0002c0 fe 3b 35 3e a0 b8 3a 3e 45 3e 69 3b a7 07 68 3d
       0.17698666 0.18234491 0.0035590094 0.056647923
0002d0 04 4e b3 3d 46 6d 3f 3d 54 c7 d0 bb 27 8d 92 3d
       0.08755115 0.04673507 -0.006371418 0.07155829
0002e0 34 c6 90 bd 9c 10 33 bd 69 1b 64 bc e5 fc fc bc
       -0.07069054 -0.04371701 -0.013922551 -0.030882308
0002f0 8d 40 3a 3d 39 d6 a2 bd 87 60 a8 3c ce 50 d9 bd
       0.045471717 -0.07951016 0.02055384 -0.106111154
000300 2c 0a 06 3c 78 18 6e 3e 35 11 cd bd 19 00 94 bd
       0.008181136 0.23251522 -0.100130476 -0.07226581
000310 f0 ee 5f bd d3 32 62 3e 60 08 3c 3e 86 21 95 3e
       -0.054671228 0.220897 0.1836257 0.2912714
000320 31 cc e1 3d c2 b6 9d 3e 90 1c 86 bc a0 13 9a 3c
       0.110252745 0.30803496 -0.016371042 0.018808186
000330 fd be 0f be e7 5e a0 bc 89 2b 99 be 4d 2b 16 be
       -0.140377 -0.019576503 -0.29916027 -0.14664955
000340 35 9e 4b be e7 93 74 3d 68 d9 15 be b0 69 21 be
       -0.1988457 0.059711363 -0.14633715 -0.15762973
000350 62 98 0f be c3 cf 13 3e 4c 7b ab be 3d 92 28 3d
       -0.14022973 0.14434724 -0.33492506 0.04115509
000360 eb 36 1c bd e0 ce 47 be 48 13 27 bd f8 b7 1f 3c
       -0.03813831 -0.1951251 -0.040789872 0.009748451
000370 f6 81 04 3e 12 b4 ff 3d b2 ea 3c 3e d4 df 53 3e
       0.12940201 0.124855176 0.18448904 0.20690852
000380 f8 95 2d be 25 db 70 be 6b 11 97 3d 5d d2 6e be
       -0.1695174 -0.23521097 0.07376369 -0.23322435
000390 92 63 a5 be c6 87 c9 be 05 42 42 bd 2d ef 13 be
       -0.3230253 -0.393614 -0.047426242 -0.14446707
0003a0 6f d2 6c bd 98 3b ee bd a1 76 96 bd b7 cf a8 3d
       -0.057817873 -0.1163246 -0.073468454 0.082427435
0003b0 f3 ed 92 3d d7 07 22 be 43 3a 00 bb 70 57 36 3e
       0.071742915 -0.15823303 -0.0019565977 0.17806792
0003c0 56 f7 47 be 62 55 31 be 3c 16 80 3d e3 5e c6 3d
       -0.19527945 -0.17317727 0.06254241 0.09686067
0003d0 90 cc 3b bd 28 d5 2d 3e ac 1d 55 3e 4b 72 8d 3e
       -0.045849383 0.16975844 0.208121 0.2762626
0003e0 a8 5a db bd e9 6f 96 3d 30 c2 4f 3e f8 8a fc 3d
       -0.10710651 0.07345564 0.2028892 0.12331194
0003f0 7e 15 40 be 0f e6 c5 3d e2 4b 1f be 2f 4b 56 be
       -0.18758199 0.09663021 -0.15556291 -0.20927118

0.bias f4 [89]
000000 f8 a6 a7 bd c5 c3 90 be 24 d4 a4 3e 86 40 85 be
       -0.08186144 -0.2827436 0.321931 -0.2602579
000010 72 7c a1 be 61 b6 2a 3c a4 33 d8 3d a9 95 c7 be
       -0.31540257 0.010419459 0.10556725 -0.3898137
000020 bc 70 36 bd 4b 1a ee 3c 6e dc ec bd 88 d9 5b 3e
       -0.044541106 0.029065272 -0.11565481 0.214697
000030 40 39 32 3d cc 7e b2 3b 58 4f f2 bc a3 2b 93 bd
       0.04351163 0.0054472443 -0.02957885 -0.071860574
000040 d5 76 9f 3e 1d 52 07 3e 3b 35 a7 be 00 f8 9b 3c
       0.3114535 0.13214917 -0.326578 0.019039154
000050 fd 14 bd be c8 0a 07 be 25 7f ad bd 68 77 8c bc
       -0.36930075 -0.13187706 -0.084715165 -0.017146781
000060 24 2d 05 be 1d 78 86 3e 68 1a ce bd 0a cb 19 be
       -0.13005501 0.26263514 -0.1006363 -0.1501886
000070 5f 75 9c 3e 19 95 e0 bd 79 42 8c 3d 3d 9e 6a 3e
       0.30558297 -0.10965938 0.06848616 0.22911926
000080 a8 87 c6 bc b9 bc 87 3e 9d d0 65 bd a4 fb 25 bd
       -0.024234608 0.2651117 -0.056107152 -0.040523186
000090 90 7e e6 3c 55 ba c4 bb c0 3e 09 3b a8 73 ba bd
       0.028136522 -0.006003658 0.0020941943 -0.09104091
0000a0 31 61 aa be f9 45 13 be db 82 35 3e c0 eb 4a bc
       -0.33277276 -0.14382161 0.17725699 -0.012385309
0000b0 8a c4 78 be 41 01 81 be 31 45 c2 be 95 fd 93 3e
       -0.24293724 -0.2519627 -0.37943414 0.28904405
0000c0 5e 02 99 bd 66 e6 6f 3e 2d e5 59 be 4b e5 8e be
       -0.07471155 0.23427734 -0.2127883 -0.27909312
0000d0 c0 d6 9d be db 76 20 be 22 cb 57 bc f0 5a 33 bc
       -0.30827904 -0.1567034 -0.013170989 -0.010946974
0000e0 7e 5c 34 be 67 f0 c9 bd 1c 3a 57 bd ae 61 b4 be
       -0.17613408 -0.09860306 -0.05254565 -0.35230774
0000f0 46 48 d2 be b0 1a 90 bd 66 53 cb bd 6e 86 4b be
       -0.41070765 -0.0703634 -0.09928016 -0.198755
000100 1a 16 b5 3d 3d 8c a1 be 3a 08 21 be 31 ea fa 3c
       0.08842106 -0.31552306 -0.15725794 0.03062925
000110 14 02 03 be da 43 41 be 44 2a 11 bd c6 8a c1 bd
       -0.12793761 -0.1887354 -0.0354407 -0.09450297
000120 20 87 bf be 9e 56 2d 3e e8 9f bb bd 40 f1 1a 3c
       -0.3740778 0.16927573 -0.09161359 0.009456933
000130 c0 0e 42 bb 41 42 54 3e 4e 43 08 be e8 a9 cd bd
       -0.0029610842 0.20728399 -0.13306925 -0.10042173
000140 70 d0 79 3e 19 4d 80 bd a2 96 d5 3c b8 ad 91 bc
       0.24395919 -0.06264705 0.026072804 -0.01778303
000150 f4 94 f0 3d bc 5a e5 bc 82 59 aa 3c 90 d8 ac bd
       0.117471606 -0.027997367 0.020794634 -0.084397435
000160 f3 55 7a 3c
       0.015279281

3.weight f4 [88, 89]
000000 24 87 d6 bd 27 49 4b bd e3 12 87 bc 16 48 78 bd
       -0.10474995 -0.04963031 -0.016488498 -0.06061562
000010 d6 f8 81 3d 05 b3 ac 3d d7 dd 4a bd 80 f1 a6 bd
       0.0634629 0.08432583 -0.04952797 -0.08151531
000020 ea b8 b6 bd f6 f2 5b bc e4 f8 c9 bd 6b c1 bf bd
       -0.08921988 -0.013424626 -0.09861925 -0.093630634
000030 c0 08 2b bb f9 49 8e bd 34 89 a4 bd 2b f6 89 3d
       -0.0026097745 -0.06947703 -0.08033982 0.06736406
000040 11 3f 92 bd f2 77 1f 3d 12 ce 46 3c 7e 6c 2d ba
       -0.07140935 0.03893275 0.012134092 -0.0006615593
000050 10 b2 3f 3c 89 95 27 3d 23 67 9d bd 10 a1 ed bc
       0.011700168 0.040914092 -0.076856874 -0.029007465
000060 00 5e 16 bb 13 4c 8e 3d d6 63 3c 3d e3 01 6e bd
       -0.0022944212 0.06948104 0.04599365 -0.058107268
000070 6a d2 e8 3c 0b 63 bd bd 55 2c 4a bd c0 29 9d ba
       0.028420646 -0.092474066 -0.049358685 -0.0011990592
000080 74 2a b8 bd a6 ce bc 3d b8 b0 23 3d a0 93 44 3c
       -0.08992472 0.092191026 0.039963454 0.011998087
000090 b1 e4 d4 bb cb 7b b9 bd 5c 9f dd 3c 87 00 95 bd
       -0.0064969887 -0.09056815 0.027053528 -0.07275491
0000a0 51 25 85 bd b3 27 55 bc 5c ae e8 3c 1d b9 b9 bd
       -0.06501258 -0.013009953 0.028403454 -0.09068511
0000b0 a6 22 a1 3d 73 b0 b2 3d 5a 04 df bd a4 44 ce 3c
       0.07867937 0.08725061 -0.10889502 0.025179215
0000c0 02 80 0a 3d c0 40 9e ba dd 76 e1 3b 4f ab 1f bd
       0.033813484 -0.001207374 0.0068806247 -0.038981732
0000d0 03 8a c3 bd 74 33 e4 bc 85 36 9b bd 3d 0f 84 3d
       -0.09547808 -0.027856566 -0.07578758 0.06448219
0000e0 a1 54 8f 3d 53 96 99 bd be 59 4b 3d 09 33 a4 3d
       0.069985636 -0.07499375 0.04964613 0.08017547
0000f0 2a 9e cd bd 2e 7b 10 3d 52 df 74 3d ac 89 6d 3d
       -0.10039933 0.035273723 0.059783287 0.057992622
000100 c9 82 bb bd c1 da a5 bd 2e a8 65 3d 47 44 a1 bd
       -0.09155805 -0.080983646 0.05606859 -0.07874351
000110 ff 52 5d bd 24 95 14 bd 44 0a 95 bd df c3 cc bc
       -0.05403423 -0.036275044 -0.07277349 -0.024995742
000120 34 8c e9 bc 39 9c 16 bd 2a fd 9a bd 3a b8 1f bd
       -0.028509237 -0.03677008 -0.075678185 -0.03899405
000130 da d4 03 3d 30 12 8d bd 0f 1b 42 bd b9 6b a9 bd
       0.032185413 -0.068882346 -0.047389086 -0.082724996
000140 1e f6 79 bd a7 a1 62 3d 55 1c 1d bd b9 e5 cb bd
       -0.06102573 0.055329945 -0.038357098 -0.099559255
000150 92 56 af bd b6 da a5 bd 62 07 6c 3d 9d 6a 51 bd
       -0.08561434 -0.080983564 0.05762423 -0.051127065
000160 e5 96 3c 3d e8 b5 4a 3c f1 d0 8e be 57 df 17 bf
       0.04604234 0.012372471 -0.27893785 -0.59325165
000170 0f c8 46 bc 51 95 45 3e d2 4f b2 3d 93 09 84 3e
       -0.012132659 0.19295241 0.08706631 0.25788555
000180 45 25 10 bd 00 55 15 bb d0 34 00 bc 57 47 b6 3d
       -0.035191793 -0.002278626 -0.0078250915 0.08900326
000190 ff 27 b5 bc 26 18 c8 bd 74 da 8e 3d 94 75 cc bc
       -0.022113798 -0.09770231 0.069752604 -0.02495841
0001a0 a4 22 57 3d 52 dd 31 3e f2 b8 1e be 70 28 3a 3c
       0.05252327 0.17369583 -0.15500239 0.01136218
0001b0 e5 f9 b8 bd 8d 3a 00 be d3 39 0e bd a4 69 f0 3d
       -0.090320386 -0.12522335 -0.034723114 0.11738899
0001c0 a5 dc be bd 30 8c 67 3c 0b b1 06 bd 31 da bd 3d
       -0.09319428 0.014132544 -0.032883685 0.09270132
0001d0 60 cd 69 bc b5 06 36 bd 78 89 56 be 83 e4 73 3d
       -0.014270157 -0.04443999 -0.20950878 0.059544098
0001e0 11 a3 c3 bd e0 f1 79 bb 6b ec 8c be 97 fd f5 bd
       -0.09552587 -0.0038138554 -0.27524123 -0.12011259
0001f0 57 00 66 bd 7f 9d c5 bc 73 8e ed bd 40 78 b5 bd
       -0.056152668 -0.024122952 -0.11599436 -0.088608265
000200 c9 23 5a 3b db 72 9a 3b b8 15 3d be a8 83 8e 3d
       0.003328549 0.004713399 -0.18465316 0.06958705
000210 1e 33 10 bd 9e 20 c4 3e 2d cb 95 3e af 83 a6 3d
       -0.035205 0.38306135 0.29256573 0.081305854
000220 6d 0c b1 3c d6 fa 8e bd 01 2a 85 bd f2 23 88 bd
       0.02161237 -0.06981437 -0.06502152 -0.06647481
000230 ab 84 ea bd 0c 6f 01 3e 5f d8 cd 3d c5 98 a3 bd
       -0.11451086 0.12640017 0.10051035 -0.07988123
000240 66 8a 34 3d 79 05 b3 bc 4c 22 c9 bd c8 8c 67 bc
       0.0440773 -0.021853196 -0.09820995 -0.014132686
000250 22 7c aa 3d 9a 1d 01 3e d2 30 25 3d e5 a9 b7 3d
       0.08324458 0.12608948 0.04032976 0.08967952
000260 cb 05 64 be fa 5d 76 3d f2 76 c5 be 86 30 3d 3d
       -0.22267835 0.060148217 -0.3856731 0.046188854
000270 7e b5 9b 3d d7 d7 e9 bc 06 d0 ba 39 c0 72 fc 3a
       0.07602976 -0.028545303 0.00035631674 0.0019260272
000280 06 5a 34 3c 97 fe 94 be 71 74 58 3b 54 43 17 be
       0.011007791 -0.29100487 0.003302839 -0.14771777
000290 80 34 7a 3b eb 5f 85 3d ea 16 ab 3c e7 81 bc 3d
       0.0038178265 0.065124355 0.02088495 0.092044644
0002a0 1c 3c b0 3c f9 84 01 3e eb fa 0e 3e 30 73 77 3d
       0.021513037 0.12648381 0.13962905 0.060412586
0002b0 8a f7 84 3d 63 8e de 3c 3c 29 7f 3c 94 b9 17 be
       0.06492527 0.027167505 0.015573796 -0.14816886
0002c0 63 bd d6 3d 53 19 c1 3d 25 cf a2 3d 89 5b 1c 3e
       0.104853414 0.09428658 0.07949666 0.15269293
0002d0 21 c8 5b 3d 14 32 b6 be a1 fd 88 bc 36 09 c0 3d
       0.053657655 -0.35585082 -0.016722502 0.09376757
0002e0 9f c4 f0 3d e1 be 87 3e 1f f8 d1 3d 83 2c 8c be
       0.117562525 0.26512817 0.102524035 -0.2737771
0002f0 13 ef 03 be 33 dc d9 3e 51 65 90 3d 4e 86 98 bd
       -0.12884168 0.4255081 0.070505746 -0.074474916
000300 a0 0a 7f bd 96 7a d9 bc a4 83 96 be 18 7a c2 3c
       -0.062265992 -0.026547711 -0.2939731 0.02373986
000310 a4 0a 80 3b d0 2b 88 bb ba 04 15 3e f3 d5 e3 bc
       0.0039075185 -0.0041556135 0.14552584 -0.02781198
000320 24 0d 82 bd a0 5b 5a 3c 10 9e ef 3b 03 dd ad 3c
       -0.063501626 0.013327509 0.0073125437 0.02122355
000330 24 37 89 bd 4c cd a4 bc 9f bd 35 3d a3 b7 9d be
       -0.0669997 -0.020117424 0.04437029 -0.30804166
000340 f1 9f d9 3e 5b f6 dc bc b7 9e c3 3d 04 e4 ea bd
       0.42504838 -0.02697294 0.09551757 -0.11469272
000350 c8 40 96 3d bf 60 8f 3d b9 92 1f bc 0d 8e 93 3e
       0.07336575 0.07000875 -0.009739571 0.28819314
000360 07 35 b9 3d bc db 38 bd c5 a5 09 3e 6f a9 eb bd
       0.09043317 -0.04513143 0.13442142 -0.11506926
000370 0f 1c 4b 3b 7a 88 3b 3d cd b3 8a 3d 09 2a e0 bd
       0.0030992066 0.04578445 0.067725755 -0.109455176
000380 7c 70 a1 bd 8f be 7b 3e ec fa 5c bd eb 84 95 3d
       -0.07882783 0.24584411 -0.053950235 0.07300743
000390 11 1e 3c be 63 7d 0b 3e 97 0b 65 be b2 31 5e be
       -0.18370844 0.1362205 -0.22367702 -0.21698645
0003a0 e2 3e 8b bd 04 1e bb bd ac 7d 55 3b 3d 26 18 bf
       -0.06799103 -0.091365844 0.0032576127 -0.59433347
0003b0 02 8d 86 bd 28 ae 42 3e 7e d8 fa 3c 8c 0b de bc
       -0.06569864 0.19011748 0.03062081 -0.027105115
0003c0 e2 96 5c 3d 21 6f de be 80 c9 f1 3a 6c 3f f3 3b
       0.05385483 -0.4344416 0.0018446892 0.007423332
0003d0 13 cc 58 bd 0b 54 7b 3e 56 f7 fa 3d be 9a fc 3d
       -0.052928995 0.24543779 0.12254207 0.12334202
0003e0 a5 5b 7e bd ef 5e 52 3e 1e a4 99 bd 4e b6 43 3e
       -0.062099118 0.20544027 -0.07502006 0.19112512
0003f0 24 f6 9e 3e c0 9c f6 ba 4e 3a 4a 3d e2 ca b8 3d
       0.31047165 -0.0018815026 0.04937201 0.09023072

3.bias f4 [88]
000000 35 0e d5 bd 5f 39 92 3b d9 12 20 3d 9a 9d ec bc
       -0.104031004 0.0044624056 0.039080475 -0.028883744
000010 c0 22 d3 3a 3a ff 8f 3d 63 cf f6 3d 69 11 aa 3d
       0.0016108379 0.070311025 0.120512746 0.08304102
000020 1c 64 34 3d 69 dc c5 bc 45 b4 86 3a 1a 12 e9 bc
       0.044040784 -0.024152951 0.0010277113 -0.028451014
000030 a1 9b 0a 3d 85 7b 10 3c 17 b1 dc bd 69 e2 ca bd
       0.033839826 0.008818512 -0.10775965 -0.099064656
000040 85 c2 62 3d f0 ef b4 3d 86 5d d4 bd a5 4e 28 bd
       0.05536129 0.08834827 -0.10369401 -0.041090626
000050 b0 da e2 3c 20 cd ce 3d 9b 4c 8a bc 09 df 5c 3c
       0.027692169 0.10097718 -0.016882231 0.01348091
000060 6b 92 83 bd f3 48 69 bd 92 94 31 bd 2c 8a a9 3c
       -0.064244114 -0.056954335 -0.04335458 0.020695768
000070 3c 2a 29 bd f0 3a 8e bc b8 27 42 bc 4c 71 3e 3d
       -0.041300043 -0.017362088 -0.01185029 0.046494767
000080 fe 58 41 3d 33 84 a1 bd db d3 b0 3c 7f 2b a7 3d
       0.04720401 -0.07886543 0.021585396 0.08162593
000090 18 e4 b5 bd 2e fb 0d be b7 fa c7 bd ee 0a 8b 3c
       -0.08881396 -0.13865349 -0.09764617 0.016972985
0000a0 cd c7 21 3d 56 b6 15 bd 09 0d 9b bc e8 98 e2 bd
       0.039497185 -0.036550842 -0.018927114 -0.11064321
0000b0 3d 78 a0 bd 7e e2 56 3c ef 3d 45 3d 43 fa ae 3d
       -0.07835434 0.013115523 0.048154768 0.085438274
0000c0 bf f2 97 bb c2 04 60 3d f5 15 bf bd 0d 87 18 3d
       -0.004637092 0.054692037 -0.0933036 0.03723817
0000d0 68 60 13 be ea 1c d9 bd d2 70 9b bc 05 d1 b2 bd
       -0.14392245 -0.10601218 -0.018974695 -0.087312736
0000e0 22 ad e6 bc 64 fe db 3c 65 0f 9e 3d 58 5c c4 3d
       -0.028158728 0.026854701 0.0771778 0.09587926
0000f0 cf 14 04 bd 09 85 fd bd d7 3f 11 3d c0 c6 cd bc
       -0.032246407 -0.1237889 0.035461273 -0.025119185
000100 50 99 f9 3c 31 35 99 3c b4 ba 19 3d 65 e0 ea 3d
       0.030468613 0.018702121 0.03753157 0.11468581
000110 dc f8 1c bc da c7 4e 3c 17 92 9a bd 04 57 c7 3d
       -0.009580817 0.0126208905 -0.07547396 0.09733394
000120 48 00 de bd 8f b4 a1 bd b6 60 b4 bd a0 e9 47 3c
       -0.108398974 -0.07895767 -0.08807509 0.012201697
000130 2b db 93 3c a6 63 32 3e 4c 96 a5 bc 3f d6 3f bc
       0.018048843 0.17420825 -0.020213269 -0.011708795
000140 8b 48 8d bd f0 db 97 bd 56 3a df 3d 2d ed 11 bd
       -0.06898602 -0.074149966 0.108997986 -0.03562658
000150 c2 ee 10 bc 09 82 8e 3c ba d7 6c bd 7d 0d 45 bd
       -0.008845987 0.01739599 -0.05782292 -0.048108567

6.weight f4 [1, 88]
000000 09 21 92 ba c6 d3 ea 3e e9 e3 96 3e 66 0f 6f bd
       -0.0011148761 0.45864695 0.29470757 -0.058364294
000010 d2 5b ce 3c 0c 10 84 be ff 80 39 bd 38 0d c5 bd
       0.025190268 -0.25793493 -0.045289036 -0.09621662
000020 cc 92 3f be e3 b0 b3 3a 21 1e 5b be 62 6d 7c bd
       -0.18708342 0.0013709333 -0.21398212 -0.061627753
000030 05 b9 91 3e 78 dc 42 3e df 42 81 3c b1 3e 13 bd
       0.2846147 0.19029415 0.015778957 -0.03594846
000040 29 a2 d3 bd bc 5c 7d 3d 52 30 d7 3d 89 63 87 bd
       -0.10333664 0.061856017 0.10507263 -0.06610782
000050 e1 64 d0 3e 6a ae 37 be 58 41 64 be 3f 0e 3a 3e
       0.40701964 -0.17937627 -0.22290552 0.18169497
000060 10 56 0a bf 41 b0 49 3c c1 72 a3 be 01 ea 78 3e
       -0.5403757 0.012310089 -0.31923488 0.24308015
000070 48 e8 a9 3e 5c 4b 7b be ef e8 d5 3e e8 45 ab 3e
       0.3318503 -0.24540466 0.41779277 0.33451772
000080 d8 74 d8 3d bc 24 37 3e 34 be 4d be e8 8f fc bd
       0.10569161 0.17885107 -0.20092088 -0.123321354
000090 6d 64 2a 3f e0 3e 67 be 10 9e df 3b bd 77 a1 3e
       0.6655949 -0.22582579 0.0068242624 0.31536666
0000a0 10 dc 12 bf 95 4f 1f 3e 22 f6 e0 3e 08 6d a4 bd
       -0.5736704 0.15557702 0.43937784 -0.080286086
0000b0 a5 67 93 3e 8c e9 93 3c 9d 7b 0b bf 5f 34 94 3d
       0.28790012 0.0180557 -0.54485494 0.072365515
0000c0 1e c1 9b be 24 21 e1 bd db 95 32 3e 82 39 8b 3e
       -0.30420774 -0.10992649 0.17439978 0.27192312
0000d0 ee 05 92 be 19 06 91 bd cb 39 ee 3e 9f 04 1b bf
       -0.2852015 -0.07081241 0.46528468 -0.60553926
0000e0 9e 68 38 bf 65 a1 29 be da 45 83 3e 76 a2 18 3d
       -0.72034633 -0.16565473 0.2563923 0.03726431
0000f0 6e 3d 36 be 84 8f b7 bd c0 17 97 be f0 a3 81 3e
       -0.17796871 -0.0896292 -0.29510307 0.25320387
000100 14 f3 fe 3e 9f 38 18 bf 46 02 39 3e f6 13 f0 bd
       0.4979483 -0.59461397 0.18067273 -0.11722557
000110 e1 5a 7d be 9b 6c 06 bf 2a 4c da bc 51 10 11 3d
       -0.24741699 -0.5250947 -0.026647646 0.03541595
000120 0c 51 48 3f c9 5d 6b bd 84 a0 d5 3e 69 14 91 3d
       0.7824867 -0.057462487 0.41724026 0.07083971
000130 a2 64 da 3e a5 e6 3a 3e db c8 6e bb 2b a1 c1 be
       0.42654902 0.18252046 -0.0036435637 -0.37818274
000140 c5 eb c8 be 1f 55 9e bd b2 74 bb be 69 11 b3 3e
       -0.39242378 -0.07731079 -0.3661247 0.3497422
000150 8f d4 31 3e 20 6e 40 bf 93 76 86 bd 85 7e c5 3e
       0.17366241 -0.7516804 -0.06565585 0.3857309
