model_2021.pt (torch, 47239 bytes, 5 tensors)

0.weight f4 [89, 36]
000000 8a 32 d5 bd 00 b1 40 be ef c1 98 bc 8e ae 74 3c
       -0.1041003 -0.1881752 -0.018647162 0.014934195
000010 fc dd 98 bd c2 17 d7 3d d3 b1 03 3c 04 e0 f4 3d
       -0.07464215 0.10502578 0.008038002 0.1195679
000020 68 92 fc 3d ca e9 21 be 03 05 00 3e 65 c7 04 3d
       0.12332612 -0.1581184 0.12501912 0.03241672
000030 b6 97 eb bd a8 01 e4 bd de 8c 0c 3d ba 41 59 bd
       -0.11503546 -0.111331284 0.03431403 -0.053041197
000040 73 64 14 3d 2a 9d d6 3d 93 7f 09 bf f4 96 b3 be
       0.03622861 0.104791954 -0.5371029 -0.35076106
000050 35 0c ab 3d 05 94 5d 3e 45 f8 c7 be 8d 5f 94 be
       0.08351938 0.21638496 -0.39056602 -0.2897915
000060 9c a0 4f bb d9 36 97 bd 94 79 b6 bd b7 d8 47 3d
       -0.0031681424 -0.07383508 -0.08909908 0.04879066
000070 7e aa 2c 3d 3c 5e 99 3d cd e0 3a 3c 0c 67 59 3e
       0.04215478 0.07488677 0.011406136 0.21230716
000080 a8 ae 45 3e cf a6 9c 3d fc 95 46 bc c7 ac 01 3e
       0.19304907 0.07649004 -0.01212072 0.12663566
000090 b5 c5 d0 3d 43 18 10 3e e5 09 9c bd 66 25 a8 3d
       0.101939596 0.14071755 -0.07619075 0.08210258
0000a0 ad c0 b7 bd 95 15 3b 3e 34 33 26 bb a6 57 94 bd
       -0.08972297 0.18269952 -0.002536011 -0.0724328
0000b0 d4 d6 8f 3e 11 b3 90 3b ea 78 4f 3e 94 d4 8c 3d
       0.28093588 0.0044158776 0.20260969 0.068764836
0000c0 5e dc e3 3d b6 37 1c be ed 76 52 be 67 06 12 be
       0.11126016 -0.15255627 -0.20553179 -0.14260255
0000d0 63 07 02 3e f4 e9 07 3d 75 d5 5a bd bb 7b 41 3d
       0.1269813 0.0331821 -0.053426225 0.04723714
0000e0 74 4f c4 bd aa 6b b3 bd 9f 65 28 bd 78 96 dd 3d
       -0.09585467 -0.0876077 -0.04111254 0.10819715
0000f0 ce 54 22 3e 30 dd 9e 3d 33 02 66 3e 29 3c 7c 3d
       0.15852663 0.07757032 0.22461776 0.06158081
000100 55 1d 2b bc bf 0c 50 3e 1a 44 09 3e 43 9f c8 bd
       -0.010444005 0.20317362 0.13404885 -0.09796002
000110 25 b7 7e be 98 98 56 be 2b f2 66 be f5 a7 8e be
       -0.24874552 -0.20956647 -0.22553317 -0.27862516
000120 33 fc 58 bc 01 9f 1b be 62 3f e7 bd 05 62 17 3d
       -0.013243723 -0.15197374 -0.11291386 0.036958713
000130 16 17 02 be a4 ed f9 3d 32 c3 2f bd 35 8f a9 3b
       -0.12704119 0.122035295 -0.042910762 0.0051745423
000140 fc e1 52 3e a8 37 21 3d bc 4f 12 bb 20 74 27 3e
       0.20594019 0.03935972 -0.0022325357 0.16352892
000150 19 d7 8d 3d f7 c4 7b 3e ec 39 25 bd 52 fa 14 3e
       0.06925792 0.24586855 -0.04033844 0.14548615
000160 95 2c 04 be 87 52 7f 3e 96 03 76 be e9 ae ce 3d
       -0.12907632 0.24933825 -0.24024805 0.10091955
000170 79 17 67 be 64 25 03 3d 35 69 8c be f0 b5 81 be
       -0.22567548 0.03201808 -0.27424017 -0.2533412
000180 ab e5 45 bd a2 14 d3 3d 91 d9 2c 3e 02 dc 3a bd
       -0.04831473 0.1030667 0.1687987 -0.045619972
000190 92 4b 8f bc 90 2d d4 bd 76 78 89 bd 3d 9d a8 be
       -0.01749209 -0.10360253 -0.06712429 -0.32932463
0001a0 05 07 b1 3d 9e be 2a 3e b6 89 f9 bd 9a 42 9e 3d
       0.08643917 0.16674277 -0.121844694 0.07727547
0001b0 4c 55 92 bc 31 83 05 be c6 4b c1 3d e8 a7 00 3e
       -0.017862938 -0.13038327 0.09438281 0.12564051
0001c0 ad 5a f4 3d 8d 46 06 be 7c 7b 4c 3c c1 e7 98 bd
       0.119313575 -0.1311285 0.012480613 -0.074660785
0001d0 9d 04 13 3e 91 23 cd bd 5c 47 91 bd 00 56 fa bd
       0.14357229 -0.100165494 -0.07093689 -0.122234344
0001e0 1f c6 88 bd d9 5c 31 3d 41 c0 6c bd 73 47 d6 3d
       -0.066784136 0.043301437 -0.057800535 0.104628466
0001f0 0a 5e d7 3d 91 fb 13 bd b2 0b da bd d0 ae 09 bc
       0.105159834 -0.036128584 -0.10646762 -0.008403495
000200 fe 9e fc bd a3 02 b4 3d 14 95 96 bd 43 68 b8 3d
       -0.12335013 0.087895654 -0.07352653 0.09004261
000210 df c6 19 3e f8 c8 02 be 8c bb b0 3d 95 ce 3d bd
       0.1501727 -0.12771976 0.08629522 -0.04633959
000220 ec 93 b0 3d 42 cf c6 bd 67 77 06 bb 44 49 04 3e
       0.08621964 -0.097075 -0.0020517947 0.12918574
000230 c1 c4 2d bc 6b 5c 25 3e 08 e5 73 bc ec e8 cb bd
       -0.010605992 0.16148536 -0.014886148 -0.09956536
000240 85 b3 21 3c 05 d5 ff 3d 49 94 00 be d3 15 8a bd
       0.009869461 0.12491802 -0.12556566 -0.06742444
000250 50 5c ea 3d 4f 29 46 bd a5 76 4f 3e 1a 93 9b bd
       0.114433885 -0.04837924 0.20260103 -0.07596417
000260 61 9f 54 be 47 68 04 be 7c 39 a5 bd 91 dc c0 3d
       -0.20763923 -0.12930404 -0.08067605 0.0941707
000270 d6 61 75 3d f2 85 5f 3d 65 7e 7e bb 6e ba 08 3e
       0.059907757 0.0545711 -0.0038832661 0.13352367
000280 b3 a7 8e bd 13 a9 35 3d ed b1 a1 3d 7c 2f 20 3d
       -0.0696558 0.044350695 0.07895265 0.039107785
000290 59 6e 41 be e3 f5 11 be 5f 8c 06 3d 40 43 b8 3b
       -0.1888975 -0.14253955 0.032848712 0.005623251
0002a0 59 21 63 be e7 30 76 be 0c e3 ef 3d be 5b 8b bd
       -0.2218069 -0.24042092 0.11713228 -0.06804608
0002b0 33 76 4a be 70 2d 22 3c 11 77 64 be 10 b8 b7 bd
       -0.19771652 0.009898528 -0.22311045 -0.08970654
0002c0 85 ee 87 bd 40 58 16 3e 6e 4f 23 3e 3d 2d 49 3e
       -0.06637291 0.14682102 0.15948269 0.19646163
0002d0 d0 db f7 bd 38 6c a1 bc 0c 3b 0f bd e6 7c 6d bd
       -0.12102473 -0.019704923 -0.03496842 -0.05798044
0002e0 90 74 1e bc 1c 59 55 bd 02 75 f0 3d 4c c8 0a 3d
       -0.009671345 -0.052086934 0.117410675 0.033882424
0002f0 50 9c 5d bd 9a ac b7 3d 80 49 48 bc 1c c3 00 bd
       -0.05410415 0.08968468 -0.012224555 -0.03143607
000300 58 8d 97 3d 70 f6 63 bd d6 cf 29 be 1b 83 b4 bd
       0.07400006 -0.055654943 -0.1658319 -0.08814069
000310 21 80 22 3e 76 d7 b0 3d 6a 08 ff 3d 90 bf 67 3c
       0.1586919 0.08634846 0.12452777 0.014144793
000320 60 95 43 3d 18 09 ef 3c be d5 a2 bd fa 60 94 3d
       0.047749877 0.02917914 -0.07950924 0.07245059
000330 38 61 01 be 30 66 06 bd ec ee 23 be 80 ba 60 3d
       -0.12634742 -0.032812297 -0.1600911 0.05486536
000340 3e c4 a7 3d 56 75 a8 3d e6 d3 c7 bd b5 e2 14 3e
       0.08191727 0.08225505 -0.09757213 0.14539607
000350 b8 96 0c be b0 db 5d bd 4b 9c b2 bd 60 64 98 bd
       -0.1372937 -0.05416459 -0.08721217 -0.0744102
000360 90 46 25 3e 7c 61 f8 bd a3 2d f0 3d db 7c b4 bd
       0.16140199 -0.12127969 0.117274545 -0.08812877
000370 61 21 12 bd 3d 4c d6 3d 0b 95 16 3e 76 78 7b 3c
       -0.035676364 0.1046376 0.14705293 0.015348544
000380 40 21 77 3d 50 81 73 be 97 7b 94 bb 87 b4 70 be
       0.060334444 -0.23779798 -0.0045313346 -0.23506366
000390 cc aa f8 bc d6 5e bb 3c 1a 0e b6 3d 17 37 66 3e
       -0.03035488 0.02287237 0.088894084 0.22481953
0003a0 e8 0d 27 be 14 22 04 3d c1 d8 4c be 85 9f 2d bd
       -0.16313899 0.032259062 -0.2000456 -0.042388458
0003b0 e1 c4 6e be 36 6b 5a be c9 76 5d be 48 9b ca bd
       -0.23317291 -0.2132996 -0.21627344 -0.09892899
0003c0 19 86 4c 3e 05 be 1e 3e 1c 91 21 3e 3b 53 82 3e
       0.19973029 0.15502174 0.15778011 0.25454125
0003d0 f2 a9 ca 3d 3a 67 e2 3b ad ae 22 3e 5b 40 13 be
       0.09895696 0.006909278 0.15886946 -0.14380018
0003e0 d1 34 0e 3e 46 fb c2 bd 75 13 3d bd d5 c5 47 3d
       0.13887335 -0.09520583 -0.046161134 0.04877265
0003f0 6f cd 24 3e d5 1c 19 be be 92 d3 bd 32 9b 05 bd
       0.16093992 -0.14952405 -0.10330723 -0.03261871

0.bias f4 [89]
000000 a7 e3 06 bd 7e cf f9 bd 0b b8 55 3e 0f d4 29 be
       -0.03293195 -0.12197779 0.20870988 -0.165848
000010 d8 0e 86 3e 96 19 b2 bd 1c 0e f6 bd df ee 84 3d
       0.261832 -0.086962864 -0.1201441 0.064908735
000020 60 6a c3 3c 62 e7 fa 3d d0 bb b1 bd a2 17 69 bd
       0.023854434 0.12251164 -0.086784005 -0.056907304
000030 5a eb 1e 3e c3 41 8b 3e cd aa 94 be bb 88 c7 bd
       0.15519467 0.2719861 -0.2903656 -0.09742876
000040 fc 37 07 bd 45 08 59 3e 2d ba 54 be 3d 9e b5 bd
       -0.033012375 0.21194561 -0.20774145 -0.08868072
000050 13 a6 45 3e 2b e7 3c be 70 86 c6 bd 00 58 d5 bd
       0.19301634 -0.18447559 -0.09693611 -0.10417175
000060 c2 15 37 3e e9 b7 2f bd b0 ba d9 bd 03 f0 43 3d
       0.17879394 -0.0429 -0.10631311 0.047836315
000070 3a e0 a4 3e 92 20 c5 be b8 90 b8 bd e0 13 bc 3d
       0.3220232 -0.38501412 -0.09011978 0.09183478
000080 00 70 85 bc 88 cf 48 3e 73 26 be bd d0 ee 1b be
       -0.016288757 0.19610417 -0.09284677 -0.15227818
000090 af 3e b2 3d 46 ca 0e bd ce 55 a8 3e 56 14 4f 3e
       0.08703362 -0.03486087 0.32877964 0.20222601
0000a0 3c 2c 65 bd 92 1e 54 bd a8 5a a8 3e ab 26 04 3e
       -0.05595039 -0.051786967 0.32881665 0.12905376
0000b0 c2 65 fb 3b 51 b8 f2 3e 97 da 51 be 55 7f 88 3e
       0.0076720426 0.47406247 -0.20493542 0.26659647
0000c0 91 46 61 be 8d 9b 38 be 52 16 9f 3e 00 35 80 bb
       -0.21999575 -0.18028088 0.31071717 -0.003912568
0000d0 ea bd ac be e8 60 d9 bd e0 76 94 bd 28 c8 1c be
       -0.33738643 -0.106141865 -0.07249236 -0.15310729
0000e0 5f d7 65 3e 40 4e ad 3e 51 12 6d 3e 31 ef 70 be
       0.22445439 0.33848763 0.23151518 -0.23528744
0000f0 50 13 8f be 08 4b 10 bd d5 97 83 be 30 92 02 bc
       -0.27944422 -0.035227805 -0.25701776 -0.007969424
000100 a2 d0 a4 3e 32 c3 c3 bd 32 af 59 bd c1 92 6b bd
       0.32190424 -0.09558715 -0.053145595 -0.057513002
000110 51 61 16 3e 97 6f 55 bc 13 a6 93 be fd 5c c8 bd
       0.14685561 -0.013027093 -0.28837642 -0.09783361
000120 d6 a0 04 be 35 9c 7f be 66 09 db bd c2 ab 65 3e
       -0.12951979 -0.24961932 -0.10695152 0.22428802
000130 10 dc b0 3e 67 c0 6a be e8 ad de bc b9 7e 81 be
       0.34542894 -0.22924958 -0.027182534 -0.25291994
000140 17 fc 1e be 20 dd 0e bd fa 95 c6 3d 15 10 c8 3d
       -0.15525852 -0.03487885 0.096965745 0.097686924
000150 04 1c 7c 3d ed a9 86 bc f7 1e 39 be d3 1c 98 be
       0.061550155 -0.016438449 -0.18078218 -0.2970949
000160 fb 85 17 3e
       0.14797203

3.weight f4 [88, 89]
000000 79 60 50 be b8 d3 83 3d 39 ea 53 bd 5f 14 d4 bd
       -0.20349301 0.064368665 -0.051737044 -0.10355448
000010 b7 db 40 3e ba f2 54 bd 2a ce 26 3d da fc 8a bd
       0.18833815 -0.051989295 0.040723957 -0.06786509
000020 fe 55 56 3d 65 76 ca 3d be 16 4c 3d 9b ee ca bd
       0.052328102 0.09885863 0.049826376 -0.09908792
000030 00 ad e6 b9 a5 47 29 bd f6 7c 81 3d 60 7e db 3b
       -0.00043997914 -0.04132809 0.063226625 0.0066984147
000040 46 df 13 3d 30 11 91 3c 2a 47 19 be d2 ea 4c 3e
       0.036101602 0.017708391 -0.14968553 0.20011452
000050 a1 9c 62 be 23 3b aa 3d 3c f8 d8 bc f3 c3 d8 bd
       -0.22130062 0.08312061 -0.026485555 -0.10584249
000060 e3 e2 56 3e 31 fb 94 3e ba e9 79 3d c6 37 82 bb
       0.20984988 0.29097894 0.061013915 -0.003973934
000070 e1 77 0c bc b3 a8 a3 be f1 d4 cb 3d e4 73 10 3c
       -0.008573503 -0.31964645 0.09952725 0.008816693
000080 cb 97 ca 3d 39 23 c8 3d 94 27 e0 3c 22 4c 37 3d
       0.098922335 0.09772343 0.027362622 0.04475034
000090 16 44 93 3c b8 0f 84 3d cf a2 7c bd bb 99 7e bc
       0.017976802 0.064483106 -0.061678704 -0.015539582
0000a0 36 8e 71 bd 8c 2d cf be 14 ab 07 be 58 91 aa 3d
       -0.058973514 -0.40464437 -0.13248855 0.08328503
0000b0 5b 69 2a bd e8 a7 02 bf 3a 20 cb 3d 7e b1 cf bd
       -0.04160438 -0.51037455 0.09918256 -0.10141276
0000c0 74 f2 1e bd 80 58 5a bd 8c cc c5 bd 49 6c b4 3d
       -0.03880544 -0.053307056 -0.09658155 0.08809716
0000d0 f9 8d da bc f6 7d 54 3d 00 87 4e 3b ab b8 87 3d
       -0.026679026 0.05187794 0.0031513572 0.066270195
0000e0 70 3c 90 3d fc 09 f5 3d 9f 04 ca bb fc 3a b7 bd
       0.070427775 0.11964795 -0.0061651017 -0.08946797
0000f0 b0 c0 b8 bc 22 9b f0 bd 16 cf d0 3d ea a0 8c bd
       -0.022552818 -0.11748339 0.101957485 -0.068666294
000100 b3 fa 9c be 2f 38 2b be 8c 0f 21 3e 16 2d d9 bc
       -0.30660018 -0.16720651 0.15728587 -0.026510756
000110 8a 8b 75 bc 4c 46 4e bd ba 9e 03 3e 0d 2a cf 3d
       -0.014986882 -0.05036001 0.12853518 0.101154424
000120 b1 be 5d bd ea 98 60 3d 4e c8 ca bd 8c 19 1f 3d
       -0.054136936 0.05483333 -0.09901486 0.038842723
000130 f7 d0 67 be d3 9a 55 3e 34 d0 1d bd ca 14 39 3e
       -0.22638308 0.20859842 -0.038528636 0.18074337
000140 85 3d f7 3d c2 bc 45 3d a8 8f 1b bc 86 26 35 be
       0.12072281 0.048275717 -0.0094947 -0.17690477
000150 f4 fe 95 bd 57 a2 df 3d e7 43 c9 bd 81 53 4d 3c
       -0.07324019 0.10919636 -0.098274045 0.012532116
000160 2c 7d a1 bd 29 de 94 3d 4a ae a3 bd d7 0c f1 bd
       -0.07885203 0.07268936 -0.079922274 -0.11770027
000170 1d 83 5f bd 5a 45 2a 3e 1c 10 27 bd a5 6d fe bd
       -0.0545684 0.16628018 -0.040786847 -0.12423257
000180 0a 1a 0c 3d f3 c8 b0 bd 18 de 37 bd 39 40 a2 bd
       0.03420452 -0.08632078 -0.04488954 -0.07922406
000190 29 ce 37 3d 83 a6 28 3d 83 9d fe 3c 1f c0 fa bd
       0.044874344 0.041174423 0.031080967 -0.122436754
0001a0 0e 4a 4d 3d 3c 77 31 bd 1f ff 4f 3d 3c 7b 95 3d
       0.050119452 -0.0433266 0.05078041 0.07298896
0001b0 d6 07 5a b8 ed 52 92 be 52 0f 08 3e af 35 90 3d
       -5.1982548e-05 -0.28578892 0.13287094 0.07041489
0001c0 05 74 c4 3d 64 cb 98 3c 13 0d bf 3d 0c 67 b6 bd
       0.095924415 0.018651672 0.093286656 -0.089063734
0001d0 a1 1c dc bd eb 7a 8a bd c7 e0 6b 3e 0c 32 b9 bc
       -0.10747648 -0.06761726 0.23034965 -0.022606872
0001e0 6e 7c cf bd 80 f8 1e bc 65 9a 1f 3e c9 f7 2f bd
       -0.10131155 -0.009702802 0.1558624 -0.042960916
0001f0 68 db e9 bc af 78 ae bd 38 0c 98 bd 7f 3f 8e be
       -0.028547004 -0.08519112 -0.074242055 -0.2778282
000200 c7 bd 97 3c 14 eb 87 bd 63 fa 60 be ec 5b 15 bc
       0.01852311 -0.066366345 -0.21970515 -0.009116154
000210 42 9a 69 3c 7f 3b 1b 3a ca ad 17 bf 54 6a 95 bc
       0.014257969 0.00059216464 -0.59249556 -0.018239178
000220 10 78 a3 3c ae ea b5 bd 50 af 35 bb e1 40 6e 3d
       0.019954711 -0.08882652 -0.0027722903 0.058167342
000230 e8 2a d5 3b ad a9 7b 3b 91 18 b8 3d ed 4a d1 bd
       0.006505359 0.0038400695 0.08989061 -0.10219369
000240 85 d5 c2 3d 0d b4 a5 3b 12 bc de 3c 8b bd 82 bc
       0.09513382 0.005056864 0.027189288 -0.015959522
000250 f3 35 14 3e fa ca c0 3c 81 6d 8f 3d 63 14 40 be
       0.14473705 0.023534287 0.07003308 -0.18757777
000260 e7 8c f8 bd 3d b2 94 3d 00 05 ca 3d cc c2 d5 3c
       -0.1213625 0.07260559 0.09864235 0.026093863
000270 c2 28 bb bd 75 e4 b5 bd b4 9f 57 be f7 08 e6 3c
       -0.09138633 -0.08881465 -0.21057016 0.028080447
000280 60 b9 4c bd 79 b1 00 bd 78 3b 64 bd 72 55 20 3d
       -0.049981475 -0.03141925 -0.055720776 0.039143987
000290 e2 4f 8e 3e 27 1c 63 bf 42 c8 87 bd 21 5b b0 3d
       0.2779532 -0.8871483 -0.06629993 0.086111315
0002a0 4b 70 b2 3d 81 34 12 3d b4 ef e7 3c b9 0e d5 3d
       0.087128244 0.035694603 0.028312542 0.10403199
0002b0 ae 73 44 bb 83 1a c6 bd 69 af 1c be 55 69 b4 be
       -0.0029976177 -0.096730255 -0.15301289 -0.35236612
0002c0 91 a3 2f 3d 42 8e 29 3d 6c ab 9c bc be 4b e1 bd
       0.0428806 0.041395433 -0.01912471 -0.11000775
0002d0 a8 7d 9c 3d c9 b7 66 bd 2c 2d bb 3c 72 13 bc bd
       0.076411545 -0.056327615 0.022848688 -0.091833964
0002e0 10 05 dd 3c a0 6c a3 3b 75 3d c3 3d ea 8f 53 3d
       0.026979953 0.0049873143 0.095332064 0.05165092
0002f0 2f 59 81 3d fc 23 03 be 7b 15 9b 3d b6 f0 b2 3d
       0.063158385 -0.12806696 0.075724564 0.08737318
000300 7b 0d 74 3d 75 19 cf 3d db c2 d8 3d 8d 46 5b 3c
       0.05958317 0.101122774 0.10584041 0.01338352
000310 17 9a d8 bd 71 8f 9d bd b3 ab 4b bd da 0c 3e 3c
       -0.10576265 -0.07693375 -0.049724292 0.011599744
000320 f0 ac ff bc 6d cd c1 3d ef 63 13 bc 97 a6 9e bd
       -0.031210393 0.0946301 -0.008995994 -0.07746618
000330 00 08 bf b8 86 0f 22 bd 6c 6b a1 bd a7 2b 41 bd
       -9.10908e-05 -0.039565586 -0.07881817 -0.04716077
000340 1c b0 d7 bc 8b 4e 6f bc d0 5b 58 bc 68 12 e0 bd
       -0.026329093 -0.014606128 -0.013205484 -0.10941011
000350 23 27 bd bd 37 a4 b2 3d 0e 50 ca bd 32 15 b0 bd
       -0.0923598 0.08722728 -0.098785505 -0.08597793
000360 98 76 01 3d 55 6b 19 bd b0 47 d2 bb 38 7c f6 bc
       0.03160724 -0.037455875 -0.006417237 -0.030088529
000370 8c 4a b5 bd 10 5b 09 bd 3a 4a 8c 3d 0f 22 70 3c
       -0.08852109 -0.03353411 0.06850095 0.014656558
000380 21 73 6c bd 85 ff 7c 3d 19 28 66 3d da a4 b6 bd
       -0.057726983 0.06176712 0.056190584 -0.08918162
000390 57 d4 4a 3c 12 94 ab 3b e5 3c ce bd 94 45 df bc
       0.012379727 0.005236157 -0.100702085 -0.027254857
0003a0 95 17 d1 bd 74 7e 15 bd 13 d4 41 3d f2 6f 26 3d
       -0.10209576 -0.03649755 0.04732139 0.040634103
0003b0 11 5a e1 bd a5 eb ee 3b 12 99 84 3d 88 6e 80 3d
       -0.11003507 0.0072912746 0.06474508 0.06271082
0003c0 1d 9f b5 3d 27 8a 50 bd 6b 2e 4a 3d 1d 1c 53 3b
       0.08868239 -0.050913002 0.049360674 0.0032212802
0003d0 f3 61 10 3b c4 a3 df bc a9 01 d9 3c e1 a4 6e bd
       0.0022031039 -0.02729977 0.02649005 -0.05826271
0003e0 da f1 a4 3c be fa 88 bd 44 e0 c3 3c d9 73 a3 bc
       0.020134855 -0.0668845 0.02391065 -0.019952701
0003f0 29 9f 82 3d 4a 67 4c 3d ac 8c ab bd aa c9 2a bd
       0.06378014 0.04990319 -0.083764404 -0.041696228

3.bias f4 [88]
000000 40 3a 8a 3a 6e 3c 44 bd db 08 cf bd 7c aa 3a 3d
       0.0010545924 -0.047909193 -0.10109111 0.045572743
000010 97 26 7c bd c1 47 ec 3d 10 4a 47 3d 13 38 07 3b
       -0.06156024 0.115371235 0.048654616 0.0020632788
000020 cf 9f 02 be d4 af ba 3d 75 91 22 3d 8d 6a 57 bc
       -0.12756275 0.09115568 0.0396895 -0.013147962
000030 d2 b3 c8 bd 9b ec 34 bc 68 5f 15 bd e5 00 78 3d
       -0.09799923 -0.011042739 -0.03646794 0.060547728
000040 7f 39 ee 3b f1 23 1f 3d 02 21 8f 3d 07 62 a9 bd
       0.0072700377 0.038852636 0.069887176 -0.0827065
000050 23 94 ad 3d 56 7d a7 bc a1 6c 0b 3d e0 43 81 3d
       0.084755205 -0.020445507 0.034039143 0.06311774
000060 a8 d0 86 bd 23 a9 d9 bb 83 a0 00 be e0 a6 0b 3d
       -0.06582767 -0.006642477 -0.1256123 0.03409469
000070 29 f0 f5 3c b4 3c 4b 3d f7 23 97 bd 91 5a 0b be
       0.030021744 0.049618438 -0.073799066 -0.13608767
000080 6f 42 1c 3d bd 30 18 bc 5c a3 ea 3c 77 10 fd 3d
       0.038149294 -0.009288964 0.028642349 0.12356656
000090 32 3d 51 bb e8 1e bb 3d d4 bc 8b bd 5d 5e 61 3c
       -0.0031927344 0.09136754 -0.068231255 0.013755408
0000a0 e0 ca ce bd 6d 49 c1 bd ac e0 c6 3c 86 19 a5 3d
       -0.10097289 -0.09437833 0.024277054 0.08061509
0000b0 3c 9a e6 bd f4 bf 30 bd 2c 89 bc bd a0 d5 6d 3d
       -0.112598866 -0.04315181 -0.09205851 0.058065057
0000c0 0e 76 ad bd 2a 30 ee 3d 0e e5 92 3c e6 fc 05 3c
       -0.08469783 0.1163028 0.017931487 0.0081779715
0000d0 e7 70 35 3d dd ed 70 bc aa 80 12 3d 38 0c a0 bd
       0.044297125 -0.0147051485 0.035767235 -0.078148305
0000e0 85 25 c5 3d 84 94 d5 bc a3 39 e4 bc b9 9c 3b 3d
       0.09626297 -0.026071794 -0.027859515 0.04580376
0000f0 c5 86 14 3d da 27 30 bd c8 37 d8 bd 81 63 54 bd
       0.03626134 -0.043006755 -0.105575144 -0.051852707
000100 30 5c 74 bd 0c 2c bd bd 98 35 f0 bd 85 40 d7 bd
       -0.05965823 -0.09236917 -0.11728972 -0.10510353
000110 2d c8 18 3e 93 99 2f bc e9 23 b3 3c 4d 53 41 3d
       0.14920111 -0.010717767 0.02186771 0.047198582
000120 0c ef 60 3d d3 d7 eb bd 0c d9 3d 3d d8 79 4b ba
       0.054915473 -0.115157746 0.04634957 -0.00077619916
000130 b6 79 0b 3d b2 d4 9e 3c c9 3c 59 bd 1d b6 55 bc
       0.03405162 0.01938853 -0.053036485 -0.0130439075
000140 4b a0 a0 3d 41 1e 89 bd 70 e2 90 bd 57 c8 80 bd
       0.078430735 -0.066952236 -0.070744395 -0.06288212
000150 3d 8c b6 bd 26 bb bc bd 3a 67 1e 3d a6 b6 9e 3c
       -0.08913467 -0.09215383 0.038672663 0.019374203

6.weight f4 [1, 88]
000000 29 ac ba 3e 26 0f ab 3e 76 e0 26 bd 02 e3 5f 3e
       0.36459473 0.33409995 -0.040741406 0.2186394
000010 78 e6 d7 3e 0e c0 b5 be 68 79 b0 be 6c bd 4b 3e
       0.4216802 -0.3549809 -0.34467626 0.19896477
000020 c4 bb d8 be 3b b1 bd be 60 11 0c 3f c7 76 ae 3d
       -0.42330754 -0.3704928 0.5471401 0.08518749
000030 8b f7 23 bf c1 d0 26 3e a6 e1 8f 3e e0 44 e5 be
       -0.64049596 0.16290571 0.28101844 -0.4477911
000040 4e d1 cd 3d 17 c3 8b be 9e 6a a6 3e 49 b2 84 be
       0.10049687 -0.2729728 0.32503217 -0.2591727
000050 61 0c 57 be d2 28 9d 3d 1a 2b 8d 3e 65 09 f7 be
       -0.21000816 0.076738015 0.27571946 -0.48249355
000060 1b bf 8c 3e cf 1a 95 3e 35 36 9b be 1f 73 18 3e
       0.27489552 0.29122016 -0.30314794 0.14887665
000070 c8 3e 90 3e 6a 78 3d 3e aa c5 72 3e 16 22 9c 3e
       0.28172898 0.18502966 0.23708215 0.30494756
000080 99 10 ae 3d 2f f3 d8 3e 9e 2c ba 3a db 53 fb 3d
       0.084992595 0.42373034 0.0014203971 0.122718535
000090 89 5b b8 3e e7 4a c1 3e 67 59 c9 bc e7 86 25 bc
       0.36007336 0.37752458 -0.024578763 -0.010102964
0000a0 af 9d 7d bd 9b 03 91 3d e8 2d 16 ba b5 56 ac 3d
       -0.061917957 0.07080766 -0.00057288865 0.084149756
0000b0 ec e8 79 bd 95 1a 05 bf c5 15 e8 3e 8e 0a 4e 3e
       -0.061013147 -0.51993686 0.4532911 0.20121214
0000c0 39 d6 56 3e 2c 18 8f 3e d9 0c 46 3e ed 43 d7 3e
       0.20980157 0.2794813 0.19340838 0.4204401
0000d0 08 36 27 3e 52 82 c4 be f4 6c 8d 3e f4 46 b7 be
       0.16329205 -0.38380677 0.27622187 -0.3579632
0000e0 a0 2e 13 3e c5 16 1f bd 51 d7 e8 be c4 3e 1c 3e
       0.14373255 -0.038840074 -0.45476773 0.15258318
0000f0 83 4b 31 3e 3a 71 43 3e 75 72 03 bc c9 7d 41 3e
       0.17313962 0.19086161 -0.008022894 0.1889564
000100 b5 e7 d4 be b4 af 4f 3d 84 95 a0 bc 53 3b 29 3e
       -0.41583028 0.050704673 -0.019602545 0.16526537
000110 33 c3 2e 3e 7d 9a 2f 3c b2 03 57 3e 82 e0 58 3e
       0.1706665 0.010717985 0.20997503 0.21179393
000120 61 c7 b7 3d a6 3a 39 3e da af 79 3e fa 08 6e be
       0.089735754 0.18088779 0.24383488 -0.23245612
000130 00 42 c3 3d 04 81 10 3e 1a 64 16 bf f2 78 81 3e
       0.09534073 0.14111716 -0.5874649 0.25287586
000140 cd 8e 60 3e bf fb bb 3e 00 68 e2 be 66 4d c2 3d
       0.21929474 0.36715505 -0.4421997 0.09487419
000150 2d 15 86 3e fe dd a6 3d 6c 06 e9 be 09 1e 15 3e
       0.2618803 0.081478104 -0.45512712 0.14562239
